…
    "                    loss.backward()\n",
    "                    optimizer.step()\n",
    "                running_loss += loss.item()\n",
    "            loss_history[phase].append(running_loss / len(dataset_loaders[phase]))\n",
    "        \n",
    "    return loss_history"
   ]
  },
  {
   "cell_type": "markdown",
   "metadata": {},
   "source": [
    "### Define models"
   ]
  },
  {
   "cell_type": "code",
   "execution_count": 21,
   "metadata": {},
   "outputs": [
    {
     "name": "stdout",
     "output_type": "stream",
     "text": [
      "Model for duration\n",
      " MyNet(\n",
      "  (first_linear): Linear(in_features=531, out_features=512, bias=True)\n",
      "  (hidden_layers): ModuleList(\n",
      "    (0): Linear(in_features=512, out_features=512, bias=True)\n",
      "    (1): Linear(in_features=512, out_features=512, bias=True)\n",
      "    (2): Linear(in_features=512, out_features=512, bias=True)\n",
      "  )\n",
      "  (last_linear): Linear(in_features=512, out_features=1, bias=True)\n",
      "  (relu): Tanh()\n",
      ")\n",
      "Model for acoustic\n",
      " MyNet(\n",
      "  (first_linear): Linear(in_features=535, out_features=512, bias=True)\n",
      "  (hidden_layers): ModuleList(\n",
      "    (0): Linear(in_features=512, out_features=512, bias=True)\n",
      "    (1): Linear(in_features=512, out_features=512, bias=True)\n",
      "    (2): Linear(in_features=512, out_features=512, bias=True)\n",
      "  )\n",
      "  (last_linear): Linear(in_features=512, out_features=199, bias=True)\n",
      "  (relu): Tanh()\n",
      ")\n"
     ]
    }
   ],
   "source": [
    "models = {}\n",
    "for typ in [\"duration\", \"acoustic\"]:\n",
    "    models[typ] = MyNet(X[typ][\"train\"][0].shape[-1],\n",
    "                            hidden_size, Y[typ][\"train\"][0].shape[-1],\n",
    "                            num_hidden_layers)\n",
    "    print(\"Model for {}\\n\".format(typ), models[typ])"
…
